transformer_model.pth (torch, 294594 bytes, 28 tensors)

embedding.weight f4 [64, 6]
-0.82806367 0.092709124 0.10906718 -0.17366709 -0.06271509 0.1740959 -0.40183958 -0.14944315
0.1218186 0.04179716 -0.3168905 0.13485968 0.48405606 0.17634287 -0.09624095 0.016048431
0.015796382 -0.023701178 1.0832845 -0.49440023 -0.46705896 0.3503592 0.16112177 -0.19589904
-1.4081346 -0.60574615 0.114269055 0.20166472 -0.10184359 0.08260905 -0.849886 -0.013854083
-0.11108358 0.047337104 0.001154629 0.17353906 -0.011344286 -0.11585672 0.18760924 0.01181522
-0.012499904 -0.13630955 0.71281105 -0.59908575 0.19128385 -0.2766648 -0.08309278 0.31120172
-0.18235354 0.09516487 0.10452634 0.034741957 -0.14884743 -0.02394773 -0.7717501 -0.4640343
0.22077647 -0.107305266 0.08776501 0.029897245 -1.235031 0.22259456 -0.011141277 0.016742792
0.12365842 -0.0935134 0.84975404 0.0401741 0.113116406 -0.08095642 -0.042305004 -0.027766136
1.1543386 0.55856204 -0.16603784 -0.3150184 -0.03905078 0.19776922 -1.2961737 -0.095967874
0.2987893 -0.27876723 0.13378212 0.12413661 0.025325343 -0.74908876 0.33562905 -0.048291806
-0.113348745 0.04223801 -0.2676507 -0.11721476 -0.15914679 -0.25885397 0.393562 0.22319932
0.009840775 -0.4496552 0.36286283 -0.30898383 0.1633236 -0.009019705 -0.5168211 0.12711251
0.03490498 0.0034615602 -0.018783921 0.0064935 -0.093236916 0.62985325 0.11900098 -0.19246
0.13804807 -0.27397576 1.1649656 0.21745773 -0.06561819 -0.16507904 0.085886575 0.036547676
0.64774835 -0.03849388 -0.00056085916 0.025954708 -0.11046608 0.017083382 -1.0976453 -0.26186204
-0.22216938 -0.07694494 0.3221077 0.28524965 1.8227303 -0.2836511 -0.02480699 -0.0286695
-0.0009884972 -0.038261678 -0.9710456 -0.19922307 -0.04485237 0.3334678 -0.141326 -0.07822396
-0.4714256 -0.3020625 0.5185951 -0.24382778 -0.20951177 -0.28029686 -1.2080026 0.32226193
0.047363453 0.053995457 -0.15356961 0.017165795 0.98076326 0.05424631 0.11036619 -0.278282
0.22271886 -0.101887286 0.29376742 -0.4629892 0.24122633 -0.11316398 0.13818695 -0.07665298
-1.15839 0.15719259 0.08256505 0.05851877 -0.21996486 0.04980089 0.63403934 -0.39386442
0.0054347357 0.008952097 0.19891985 -0.054623645 1.0836637 -0.054493234 -0.11576123 0.17994985
-0.06150258 -0.21531838 -0.42557868 0.014384207 -0.043247905 0.16781001 -0.054154605 -0.13891116
-0.7050358 0.20286344 0.0012517944 0.021557022 -0.0013112781 -0.010008709 -0.5111324 0.31951457
-0.3307756 0.109588474 0.2589023 -0.10210195 0.81377846 0.08917695 -0.16754523 -0.031859268
-0.09949199 0.18807082 0.7025286 0.4243832 -0.31860647 0.17423555 0.16309895 -0.21725795
1.0156218 0.14102955 0.021943964 0.18915121 -0.22175664 -0.30657345 -0.9068763 0.02969462
0.21752034 -0.08327903 0.13434748 -0.13319658 -1.0336132 0.40256846 -0.013750522 0.067641586
-0.057575885 -0.052257024 -0.8429471 0.09715248 0.02049984 0.012901514 -0.014410852 -0.0051062508
-0.6790507 0.23468377 0.025946297 -0.0048757745 0.24097666 -0.18998204 0.4990793 0.51166993
-0.4634084 0.19684 -0.08005108 0.12103207 0.48531476 -0.24126385 0.044532534 -0.0072305594
00000000: fbfb 53bf 48de bd3d 9d5e df3d c9d5 31be
00000010: c570 80bd 3246 323e ebbd cdbe a007 19be
00000020: 087c f93d 8033 2b3d 793f a2be a818 0a3e
00000030: 32d6 f73e 3a93 343e fa19 c5bd 0078 833c
00000040: 6a67 813c f928 c2bc 11a9 8a3f 0722 fdbe
00000050: 5a22 efbe 4862 b33e 1bfd 243e c299 48be
00000060: c13d b4bf 2e12 1bbf e505 ea3d 3281 4e3e
00000070: 5f93 d0bd ef2e a93d 2192 59bf 3cfc 62bc
00000080: ca7f e3bd 8de4 413d ec56 973a 39b4 313e
00000090: 62dd 39bc 4a46 edbd a31c 403e a094 413c
000000a0: 66cc 4cbc bb94 0bbe c97a 363f af5d 19bf
000000b0: eadf 433e 02a7 8dbe 8c2c aabd d555 9f3e
000000c0: e3ba 3abe cde5 c23d e811 d63d 954d 0e3d
000000d0: 766b 18be 082e c4bc 6a91 45bf e795 edbe
000000e0: 3a13 623e ddc2 dbbd 24be b33d 11eb f43c
000000f0: 7f15 9ebf d4ef 633e e789 36bc 2e28 893c
00000100: a040 fd3d f483 bfbd 7b89 593f 998d 243d
00000110: 93a9 e73d 7bcc a5bd 0348 2dbd cf75 e3bc
00000120: 5ec1 933f ecfd 0e3f d305 2abe 174a a1be
00000130: b6f3 1fbd 0484 4a3e 05e9 a5bf ce8a c4bd
00000140: e9fa 983e 94ba 8ebe 2efe 083e 563b fe3d
00000150: 1877 cf3c 48c4 3fbf 92d7 ab3e a1cd 45bd
00000160: 6323 e8bd c301 2d3d 8309 89be 4b0e f0bd
00000170: 60f7 22be 8288 84be f580 c93e 5d8e 643e
00000180: 343b 213c 3539 e6be 28c9 b93e 2133 9ebe
00000190: 4d3e 273e 62c7 13bc 634e 04bf c829 023e
000001a0: 86f8 0e3d 58db 623b bde0 99bc 6dc7 d43b
000001b0: fff2 bebd 103e 213f c9b6 f33d 3c14 45be
000001c0: 795c 0d3e 8d46 8cbe 981d 953f 3dad 5e3e
000001d0: d462 86bd 7b0a 29be 4de5 af3d 04b3 153d
000001e0: d6d2 253f c2ab 1dbd 9f06 13ba f89e d43c
000001f0: 0a3c e2bd 73f2 8b3c a47f 8cbf c812 86be
00000200: 5f80 63be 4f95 9dbd 4deb a43e 3e0c 923e
00000210: 3a4f e93f b83a 91be 0738 cbbc 4ddc eabc
00000220: 7690 81ba 47b8 1cbd 7296 78bf 2201 4cbe
00000230: 1eb7 37bd 4bbc aa3e c3b7 10be e233 a0bd
00000240: b25e f1be f0a7 9abe a6c2 043f fdad 79be
00000250: 418a 56be 1283 8fbe d49f 9abf 84ff a43e
00000260: 2e00 423d 572a 5d3d 5a41 1dbe 489f 8c3c
00000270: 4d13 7b3f 6131 5e3d ab07 e23d fa7a 8ebe
00000280: 6a10 643e 48aa d0bd af68 963e ec0c edbe
00000290: 0904 773e 84c2 e7bd e180 0d3e 3dfc 9cbd
000002a0: 2046 94bf 18f7 203e dd17 a93d 61b1 6f3d
000002b0: 783e 61be 05fc 4b3d 6750 223f 99a8 c9be
000002c0: de15 b23b d1ab 123c a5b1 4b3e 0bbd 5fbd
000002d0: 7eb5 8a3f 4c34 5fbd 3914 edbd c644 383e
000002e0: 21ea 7bbd 6c7c 5cbe 73e5 d9be bdab 6b3c
000002f0: b724 31bd 63d6 2b3e 38d1 5dbd ba3e 0ebe
00000300: 3a7d 34bf 6fbb 4f3e 4013 a43a 5a98 b03c
00000310: 31df abba 91fb 23bc 93d9 02bf 6a97 a33e
00000320: 6b5b a9be ec6f e03d d88e 843e d41a d1bd
00000330: c953 503f 68a2 b63d fa90 2bbe dd7e 02bd
00000340: 75c2 cbbd a395 403e ead8 333f c148 d93e
00000350: 6320 a3be ce6a 323e 6903 273e de78 5ebe
00000360: e5ff 813f 0d6a 103e d4c3 b33c dbb0 413e
00000370: 2c14 63be 32f7 9cbe 0c29 68bf 2242 f33c
00000380: a7bd 5e3e 328e aabd 6392 093e af64 08be
00000390: 704d 84bf 741d ce3e df49 61bc ac87 8a3d
000003a0: b1d4 6bbd 760b 56bd 62cb 57bf e1f7 c63d
000003b0: 48ef a73c df60 533c 7f1b 6cbc 5652 a7bb
000003c0: 44d6 2dbf f150 703e 548d d43c f6c4 9fbb
000003d0: 96c2 763e a78a 42be 5287 ff3e cdfc 023f
000003e0: de43 edbe 6d90 493e d2f1 a3bd a9df f73d
000003f0: 2d7b f83e df0d 77be bf67 363d 54ee ecbb

embedding.bias f4 [64]
1.9394431 1.7511806 -0.36234346 0.05314426 -2.06654 1.4599807 -3.3225553 2.4545755
-2.5905998 1.6847028 0.20514105 -3.0373092 -0.114127904 -2.4258668 -0.6941953 3.36191
2.967233 -1.9030066 1.9884661 -0.5056857 -1.0820441 -1.013141 0.8145956 -2.585745
-0.6630743 -1.6394563 2.6808717 -2.383501 0.7829032 -0.51027244 2.8795152 2.5171235
-1.1051544 2.6960354 2.8983753 -0.28381377 2.6548684 -2.1743457 -1.9218484 1.3488798
-2.470503 1.9658101 2.7584443 -0.75953937 0.4732971 2.4099586 0.19721635 -2.8235435
-0.38023353 1.822705 1.1162505 -2.3342886 -0.10401419 -0.098551705 -1.914482 2.488314
-0.53422326 1.4213502 0.83474004 -1.4299048 1.0696683 1.9334497 -3.1249974 0.7231073
00000000: ac3f f83f b026 e03f 1585 b9be ccad 593d
00000010: 3142 04c0 a6e0 ba3f bfa4 54c0 c417 1d40
00000020: 63cc 25c0 57a4 d73f 7f10 523e 4663 42c0
00000030: e4bb e9bd 6741 1bc0 c8b6 31bf 8929 5740
00000040: 25e7 3d40 b895 f3bf 0f86 fe3f 9e74 01bf
00000050: 6c80 8abf 9bae 81bf 5689 503f d97c 25c0
00000060: 3dbf 29bf b4d9 d1bf 6793 2b40 488b 18c0
00000070: 586c 483f 37a1 02bf fa49 3840 8d18 2140
00000080: b375 8dbf d88b 2c40 fb7e 3940 0a50 91be
00000090: 5de9 2940 7b28 0bc0 21ff f5bf 18a8 ac3f
000000a0: b91c 1ec0 aa9f fb3f 5a8a 3040 2c71 42bf
000000b0: ff53 f23e c33c 1a40 15f3 493e f0b4 34c0
000000c0: f8ad c2be 664e e93f 4ce1 8e3f fc64 15c0
000000d0: 6405 d5bd 7ad5 c9bd bf0d f5bf 8940 1f40
000000e0: dbc2 08bf ceee b53f 86b1 553f 1f07 b7bf
000000f0: e4ea 883f 487b f73f f5ff 47c0 8f1d 393f

transformer.layers.0.self_attn.in_proj_weight f4 [192, 64]
-0.06975941 0.040219843 -0.12573476 -0.14491731 0.101627365 -0.040227957 -0.015325397 -0.113567546
-0.059977673 0.13182054 0.07949552 0.056130633 -0.07360422 -0.040515013 -0.06069784 0.06330268
0.13436596 0.084722415 -0.06693698 -0.07779364 0.091248125 0.009696141 0.12810998 0.0988688
0.089455545 -0.11575168 0.122438475 -0.121515386 -0.05339124 0.0066975206 0.05623278 0.0096699
0.0420257 0.09383814 0.046347663 0.07408972 0.09789236 0.048202768 -0.08271187 0.07701033
0.018876106 -0.14587294 0.0511294 0.052980274 -0.01807569 -0.1057519 -0.028343074 0.07956174
0.1317638 -0.08007049 -0.016532317 0.030185029 -0.1283561 0.0125705 -0.14012533 -0.12012677
-0.09254994 0.0769552 0.012837678 -0.05203469 -0.14994071 -0.11658559 -0.14531134 -0.1400877
-0.10987835 -0.11345657 -0.099874154 0.060347125 0.0043572187 0.10592832 -0.08595172 -0.09288187
0.12751435 -0.04787848 -0.11763864 0.031783044 -0.042362288 -0.036567003 0.056236282 0.026040345
0.08802424 -0.086252466 0.091328785 -0.0062387884 0.11908661 -0.15007557 0.1125081 -0.094874755
0.06572853 -0.08864292 0.047684938 0.13722049 -0.144772 0.025859654 0.1419592 0.09922294
-0.12069598 -0.08216091 -0.09201766 0.057991236 -0.0028383285 -0.063234575 -0.10129261 0.048113137
0.056280658 0.13268264 0.11270623 -0.089629665 -0.09353386 0.051518694 -0.058362797 0.11792986
0.12444581 0.058979854 -0.040930554 -0.05802378 0.00549303 -0.0755672 -0.1206949 -0.097645886
-0.033313714 -0.07401411 -0.0017746091 0.11506231 0.071239054 -0.015716642 0.09808083 -0.09923132
-0.081129566 -0.10369745 0.050205424 -0.13220353 0.017037362 -0.13458069 -0.09339105 0.09989695
-0.07758514 -0.111207955 -0.07423202 -0.08583817 -0.058535732 -0.008446559 0.065267965 -0.12786248
-0.14132297 0.03557469 0.12872173 -0.098383754 0.067506775 0.00640063 0.059205472 0.1468509
0.035450593 -0.117432304 0.040339753 -0.12260996 -0.03600911 -0.11443113 0.10685851 -0.016985089
0.1398346 0.036565304 -0.058437876 0.06496239 0.0916495 -0.051952675 0.12994881 0.07656948
-0.08751214 -0.11094971 0.07122323 -0.10743739 0.069040745 0.07185416 -0.04310385 -0.10316449
0.13036124 0.038330182 0.040436596 0.13195686 0.11923714 0.099046245 0.040544212 0.032249257
0.0054865032 0.15188248 0.13715978 -0.10392214 0.099674806 0.023434818 0.030837744 -0.043872163
-0.052434318 0.014020681 -0.12352843 -0.10044435 0.10582583 -0.08086631 0.14260651 -0.06775728
0.048776373 0.12804146 0.05529256 -0.15132107 -0.10836477 0.14453633 0.12232961 -0.15099052
-0.021293223 -0.048501268 0.15049754 0.101413175 -0.10171884 0.091548085 -0.03440038 -0.029503308
0.09779476 -0.1283593 -0.06709053 -0.1157912 -0.014757261 0.08409463 -0.027665019 -0.15154967
0.071221665 -0.09090863 -0.07634429 -0.041885838 0.06307496 0.111110136 0.11127262 -0.07413011
0.07447739 0.05253829 0.13656269 -0.12972665 0.008907095 0.12039544 -0.092958435 0.1415435
-0.07922628 -0.08361273 -0.13663094 -0.12599823 0.015411645 -0.13896576 0.06550221 -0.12097995
-0.0019394159 0.11251034 -0.029572189 -0.05596044 0.10008435 0.08056386 -0.13306636 -0.05735533
00000000: 06de 8ebd 90bd 243d 9dc0 00be 3465 14be
00000010: 0222 d03d 12c6 24bd 6017 7bbc 1a96 e8bd
00000020: 26ab 75bd f7fb 063e 8cce a23d 3ce9 653d
00000030: cfbd 96bd 12f3 25bd 4c9e 78bd d6a4 813d
00000040: 3b97 093e f282 ad3d 4116 89bd 4652 9fbd
00000050: 4ce0 ba3d 90dc 1e3c 432f 033e ba7b ca3d
00000060: 7834 b73d 380f edbd 06c1 fa3d 0fdd f8bd
00000070: c6b0 5abd e076 db3b 5854 663d 806e 1e3c
00000080: 2423 2c3d 362e c03d 0cd7 3d3d 5abc 973d
00000090: ca7b c83d 4470 453d d764 a9bd 98b7 9d3d
000000a0: 10a2 9a3c b75f 15be 106d 513d d801 593d
000000b0: 7813 94bc 7494 d8bd bc2f e8bc 44f1 a23d
000000c0: 17ed 063e fffb a3bd c86e 87bc 9846 f73c
000000d0: c86f 03be 80f4 4d3c 047d 0fbe 0605 f6bd
000000e0: d38a bdbd b09a 9d3d 2055 523c 5422 55bd
000000f0: 0f8a 19be 6dc4 eebd 7fcc 14be 2673 0fbe
00000100: e607 e1bd eb5b e8bd d28a ccbd 8c2e 773d
00000110: 00c7 8e3b f2f0 d83d 7507 b0bd da38 bebd
00000120: 1f93 023e 3a1c 44bd 87ec f0bd f02e 023d
00000130: 1484 2dbd 48c7 15bd 0458 663d 9052 d53c
00000140: 0e46 b43d 22a5 b0bd 960a bb3d c06e ccbb
00000150: aee3 f33d 69ad 19be a66a e63d b24d c2bd
00000160: ae9c 863d 6b8a b5bd 4851 433d 8783 0c3e
00000170: 1c3f 14be a0d7 d33c c15d 113e 6635 cb3d
00000180: 742f f7bd fb43 a8bd c173 bcbd 3888 6d3d
00000190: 4003 3abb 2181 81bd 8072 cfbd 4812 453d
000001a0: 8c86 663d f5dd 073e 86d2 e63d c28f b7bd
000001b0: ae8e bfbd 4405 533d d40d 6fbd 3685 f13d
000001c0: 72dd fe3d dc94 713d cca6 27bd 58aa 6dbd
000001d0: e0fe b33b fac2 9abd e32e f7bd 91fa c7bd
000001e0: f673 08bd b694 97bd 009a e8ba caa5 eb3d
000001f0: c8e5 913d 30c0 80bc 9ade c83d ca39 cbbd
00000200: 4227 a6bd 545f d4bd 34a4 4d3d 5d60 07be
00000210: f091 8b3c 85cf 09be cf43 bfbd c696 cc3d
00000220: f5e4 9ebd ffc0 e3bd f506 98bd eccb afbd
00000230: 2ac3 6fbd 7063 0abc 36ab 853d 62ee 02be
00000240: f8b6 10be c4b6 113d a1cf 033e 6c7d c9bd
00000250: fe40 8a3d 60bc d13b 7081 723d 1560 163e
00000260: a434 113d 5980 f0bd 4c3b 253d ee1a fbbd
00000270: 4a7e 13bd de5a eabd a2d8 da3d 5024 8bbc
00000280: cd30 0f3e 80c5 153d 8e5c 6fbd 000b 853d
00000290: bcb2 bb3d 54cc 54bd 4d11 053e 76d0 9c3d
000002a0: 9139 b3bd 9a39 e3bd 7cdd 913d 2208 dcbd
000002b0: 3c65 8d3d 4628 933d aa8d 30bd e747 d3bd
000002c0: 6b7d 053e 1c00 1d3d d8a0 253d b31f 073e
000002d0: 9a32 f43d c2d8 ca3d b011 263d cc17 043d
000002e0: 20c8 b33b 1587 1b3e 9d73 0c3e 22d5 d4bd
000002f0: 4e22 cc3d 60fa bf3c 709f fc3c 4cb3 33bd
00000300: 5ec5 56bd 00b7 653c 79fc fcbd c4b5 cdbd
00000310: 36bb d83d 3c9d a5bd 7107 123e 54c4 8abd
00000320: bcc9 473d 4d1d 033e 747a 623d e9f3 1abe
00000330: 59ee ddbd 5501 143e f287 fa3d 429d 1abe
00000340: 206f aebc 44a9 46bd 071c 1a3e b6b1 cf3d
00000350: f851 d0bd 907d bb3d 6ae7 0cbd ecb0 f1bc
00000360: 9e48 c83d 9f70 03be c366 89bd f023 edbd
00000370: 70c8 71bc ce39 ac3d c0a1 e2bc d62f 1bbe
00000380: aadc 913d 4e2e babd 655a 9cbd 7c90 2bbd
00000390: 722d 813d b68d e33d e6e2 e33d 87d1 97bd
000003a0: 9a87 983d 6432 573d 17d7 0b3e 10d7 04be
000003b0: 10ef 113c e291 f63d fe60 bebd c7f0 103e
000003c0: 6341 a2bd 273d abbd fbe8 0bbe ae05 01be
000003d0: 2081 7c3c 0a4d 0ebe 0626 863d 56c4 f7bd
000003e0: 0034 feba d26b e63d 6041 f2bc c636 65bd
000003f0: 06f9 cc3d aafe a43d 8c42 08be 6ced 6abd

transformer.layers.0.self_attn.in_proj_bias f4 [192]
0.0 0.0 0.0 0.0 0.0 0.0 0.0 0.0
0.0 0.0 0.0 0.0 0.0 0.0 0.0 0.0
0.0 0.0 0.0 0.0 0.0 0.0 0.0 0.0
0.0 0.0 0.0 0.0 0.0 0.0 0.0 0.0
0.0 0.0 0.0 0.0 0.0 0.0 0.0 0.0
0.0 0.0 0.0 0.0 0.0 0.0 0.0 0.0
0.0 0.0 0.0 0.0 0.0 0.0 0.0 0.0
0.0 0.0 0.0 0.0 0.0 0.0 0.0 0.0
0.0 0.0 0.0 0.0 0.0 0.0 0.0 0.0
0.0 0.0 0.0 0.0 0.0 0.0 0.0 0.0
0.0 0.0 0.0 0.0 0.0 0.0 0.0 0.0
0.0 0.0 0.0 0.0 0.0 0.0 0.0 0.0
0.0 0.0 0.0 0.0 0.0 0.0 0.0 0.0
0.0 0.0 0.0 0.0 0.0 0.0 0.0 0.0
0.0 0.0 0.0 0.0 0.0 0.0 0.0 0.0
0.0 0.0 0.0 0.0 0.0 0.0 0.0 0.0
1.5881488 -1.5266411 -0.67714536 -2.3732128 -0.92960024 -0.12680475 2.342845 1.8154714
-1.6999067 0.32157758 1.1335722 -1.4606123 -1.9772786 -1.8003724 1.6368484 -1.1355654
1.5815591 -1.4896481 1.4868034 1.7736382 -1.1011719 1.6157312 -0.64269245 -1.5532578
1.8195019 1.7174344 0.19972362 1.1014663 1.2870063 2.9618325 -1.2829858 2.4663818
2.0403278 -1.0248457 1.2193373 -0.7999157 -2.3425426 -1.8179857 -2.6902895 2.2450688
-2.373418 -1.3438408 -2.1209803 -1.3602322 2.5528786 -1.2605526 1.9992663 -1.4600778
1.2517803 -1.0884577 -2.5843463 0.9021656 -0.20401992 -2.6103256 1.7863706 2.4008498
-1.8479428 -0.5408937 -2.8811846 -2.0132282 2.0169375 1.8182818 -1.483684 -0.60033596
00000000: 0000 0000 0000 0000 0000 0000 0000 0000
00000010: 0000 0000 0000 0000 0000 0000 0000 0000
00000020: 0000 0000 0000 0000 0000 0000 0000 0000
00000030: 0000 0000 0000 0000 0000 0000 0000 0000
00000040: 0000 0000 0000 0000 0000 0000 0000 0000
00000050: 0000 0000 0000 0000 0000 0000 0000 0000
00000060: 0000 0000 0000 0000 0000 0000 0000 0000
00000070: 0000 0000 0000 0000 0000 0000 0000 0000
00000080: 0000 0000 0000 0000 0000 0000 0000 0000
00000090: 0000 0000 0000 0000 0000 0000 0000 0000
000000a0: 0000 0000 0000 0000 0000 0000 0000 0000
000000b0: 0000 0000 0000 0000 0000 0000 0000 0000
000000c0: 0000 0000 0000 0000 0000 0000 0000 0000
000000d0: 0000 0000 0000 0000 0000 0000 0000 0000
000000e0: 0000 0000 0000 0000 0000 0000 0000 0000
000000f0: 0000 0000 0000 0000 0000 0000 0000 0000
00000100: 0000 0000 0000 0000 0000 0000 0000 0000
00000110: 0000 0000 0000 0000 0000 0000 0000 0000
00000120: 0000 0000 0000 0000 0000 0000 0000 0000
00000130: 0000 0000 0000 0000 0000 0000 0000 0000
00000140: 0000 0000 0000 0000 0000 0000 0000 0000
00000150: 0000 0000 0000 0000 0000 0000 0000 0000
00000160: 0000 0000 0000 0000 0000 0000 0000 0000
00000170: 0000 0000 0000 0000 0000 0000 0000 0000
00000180: 0000 0000 0000 0000 0000 0000 0000 0000
00000190: 0000 0000 0000 0000 0000 0000 0000 0000
000001a0: 0000 0000 0000 0000 0000 0000 0000 0000
000001b0: 0000 0000 0000 0000 0000 0000 0000 0000
000001c0: 0000 0000 0000 0000 0000 0000 0000 0000
000001d0: 0000 0000 0000 0000 0000 0000 0000 0000
000001e0: 0000 0000 0000 0000 0000 0000 0000 0000
000001f0: 0000 0000 0000 0000 0000 0000 0000 0000
00000200: 7648 cb3f fa68 c3bf 6659 2dbf b8e2 17c0
00000210: 48fa 6dbf 1bd9 01be 2cf1 1540 5e61 e83f
00000220: 8b96 d9bf d1a5 a43e e518 913f 58f5 babf
00000230: 7717 fdbf 9a72 e6bf 4084 d13f 355a 91bf
00000240: 8770 ca3f caac bebf 934f be3f 9406 e33f
00000250: 33f3 8cbf 48d0 ce3f 7e87 24bf 27d1 c6bf
00000260: 70e5 e83f e4d4 db3f 5984 4c3e d9fc 8c3f
00000270: 9fbc a43f aa8e 3d40 e138 a4bf 33d9 1d40
00000280: bb94 0240 252e 83bf 3f13 9c3f 46c7 4cbf
00000290: 38ec 15c0 c1b3 e8bf b42d 2cc0 35af 0f40
000002a0: 15e6 17c0 fa02 acbf 24be 07c0 171c aebf
000002b0: 5d62 2340 ca59 a1bf f5e7 ff3f d4e3 babf
000002c0: 563a a03f 9552 8bbf ee65 25c0 53f4 663f
000002d0: 99ea 50be 930f 27c0 cba7 e43f 86a7 1940
000002e0: 6489 ecbf 0278 0abf 5465 38c0 bbd8 00c0
000002f0: 8115 0140 75bd e83f 5be9 bdbf 9eaf 19bf

transformer.layers.0.self_attn.out_proj.weight f4 [64, 64]
0.07786805 0.0072340565 0.06535666 -0.079877935 0.016273724 -0.073675565 0.023467608 0.0948663
-0.0070375996 -0.005243961 0.013595343 0.0037508926 -0.06428765 0.07249113 0.030690683 0.050499026
-0.04807496 0.021223925 0.07672226 0.083169304 -0.008627647 -0.072661124 -0.0050452147 0.029121386
-0.028180748 -0.04652883 -0.082422026 0.018018143 -0.068801574 0.3108649 -0.017267007 -0.07682282
0.05699252 0.051457427 -0.07259164 -0.074992165 0.01587678 0.08215842 -0.1779276 -0.00942112
0.024754336 -0.016771816 -0.081443645 0.010705622 0.11530233 -0.0873595 0.0075924345 0.029424999
-0.011807935 0.027263787 -0.15185826 -0.012201864 0.006230167 -0.037854202 0.010061752 0.034477144
-0.0135805495 0.049094837 -0.26153994 0.062463697 0.03752603 0.0018838166 -0.030495932 -0.056005694
-0.03562665 0.02535913 0.096113056 -0.0047285412 0.069069445 0.01400957 -0.018534398 0.11863802
0.048684705 0.025273839 -0.024937907 0.00919589 -0.0976306 0.061713718 -0.02637009 -0.018653093
-0.036362555 0.03780542 0.025619032 0.076615185 -0.02091447 -0.07983871 -0.08658489 0.05443983
0.021566626 -0.028405586 -0.08498893 0.0012073123 -0.010918808 -0.15310259 0.04471187 -0.051276207
0.025048124 0.040827215 0.02011355 0.09238623 0.02663814 -0.0005637669 0.07283038 0.010637248
0.033583343 -0.03376284 0.065559834 -0.08447666 0.13840613 0.023190595 0.09919073 -0.025662638
0.014768175 -0.0037761745 -0.039772283 0.053014148 0.0058703236 0.13814965 0.030318366 -0.014104831
0.049788922 -0.05844767 0.01665303 0.056671478 -0.03795768 0.088781916 0.021317933 0.060042117
0.011729434 -0.06378651 0.017196568 0.0021680743 0.07131773 0.051828746 0.19539484 0.072420955
-0.030386636 0.04784181 0.0461867 -0.07064425 -0.058500566 0.0073819794 -0.20710365 -0.02253735
0.17182416 -0.04627612 0.07597474 -0.036988396 0.035452094 -0.12576129 0.028825084 0.018961571
0.07489795 0.019476268 -0.026407056 0.036243405 -0.019624375 -0.041339837 -0.1045869 0.118499324
-0.02205584 0.03455051 0.0048435447 0.0135907745 0.07679338 -0.09710383 -0.20127934 -0.009588366
0.17758009 0.011328728 0.018178858 -0.07798133 0.08855546 0.028406743 0.009973491 0.074499145
0.07230462 -0.010551845 0.08185344 -0.038071617 0.07422234 -0.13887979 0.0025758317 -0.00773113
-0.019771505 -0.1152304 -0.08317951 -0.09283463 0.004158322 -0.23261009 -0.030450055 0.04032489
0.015978917 -0.022283651 -0.006882871 0.024191907 0.013567092 0.015784787 0.014556296 -0.0051288186
-0.013800625 0.0011683559 0.016742695 -0.022799972 -0.0031826193 -0.03499815 0.020765493 -0.017198721
0.0069558867 -0.005739175 0.015348337 -0.037078775 -0.014380854 -0.000513568 -0.02055539 0.033176832
0.011892258 0.018974308 0.0094522005 -0.0105113145 -0.016114192 -0.03553588 -0.0073079737 0.010604813
0.009437821 -0.0046806796 0.017335586 -0.008419376 0.025847496 0.004012266 0.05043259 0.01794916
-0.00022684905 -0.008298775 -0.010281561 0.0050431676 0.021013198 0.0009850822 0.017148418 0.0005960178
-0.025651384 0.0045455154 0.02111829 0.006103705 -0.007718427 0.0068778316 -0.0063570486 0.015028384
0.010059508 0.005358832 -0.024177507 -0.011416755 0.014585171 -0.02227706 0.013620374 0.025326075
00000000: 4979 9f3d aa0b ed3b b6d9 853d 0b97 a3bd
00000010: 7950 853c 37e3 96bd 243f c03c 4349 c23d
00000020: aa9b e6bb 88d5 abbb 00bf 5e3c 89d1 753b
00000030: 3ea9 83bd 3b76 943d 076b fb3c 11d8 4e3d
00000040: 40ea 44bd ccdd ad3c 8f20 9d3d ab54 aa3d
00000050: f95a 0dbc 5bcf 94bd 5452 a5bb f98f ee3c
00000060: 50db e6bc 0495 3ebd e1cc a8bd c99a 933c
00000070: d7e7 8cbd af29 9f3e 8a73 8dbc 4855 9dbd
00000080: fd70 693d 06c5 523d edaa 94bd 7e95 99bd
00000090: 0510 823c ac42 a83d a732 36be 0b5b 1abc
000000a0: 9bc9 ca3c 0c65 89bc edcb a6bd a266 2f3c
000000b0: a123 ec3d 8ae9 b2bd f5c9 f83b b20c f13c
000000c0: 1276 41bc 4e58 df3c bb80 1bbe 54ea 47bc
000000d0: 6e26 cc3b 020d 1bbd 0cda 243c e837 0d3d
000000e0: f480 5ebc ab17 493d 90e8 85be efd9 7f3d
000000f0: e5b4 193d 65ea f63a 9bd2 f9bc 3a66 65bd
00000100: 40ed 11bd f3bd cf3c ecd6 c43d e1f1 9abb
00000110: 4874 8d3d 6588 653c 73d5 97bc 7df8 f23d
00000120: 9d69 473d 150b cf3c 954a ccbc 5caa 163c
00000130: 8df2 c7bd 86c7 7c3d 1606 d8bc 5fce 98bc
00000140: e7f0 14bd dbd9 1a3d 01df d13c 6ce8 9c3d
00000150: d354 abbc 7a82 a3bd 6b53 b1bd 4dfc 5e3d
00000160: 7eac b03c d5b2 e8bc ad0e aebd ae3e 9e3a
00000170: cde4 32bc edc6 1cbe cb23 373d 0007 52bd
00000180: b931 cd3c 703a 273d 2cc5 a43c fe34 bd3d
00000190: 3b38 da3c c2c9 13ba 1828 953d da47 2e3c
000001a0: b08e 093d e74a 0abd 3c44 863d 1902 adbd
000001b0: 56ba 0d3e 34fa bd3c 8224 cb3d 743a d2bc
000001c0: 37f6 713c b279 77bb 43e8 22bd 5d25 593d
000001d0: d85b c03b 1a77 0d3e 395e f83c f317 67bc
000001e0: 78ef 4b3d d366 6fbd ef6b 883c 5a20 683d
000001f0: 8379 1bbd 4bd3 b53d f2a2 ae3c b9ee 753d
00000200: d02c 403c 80a2 82bd d1df 8c3c 4016 0e3b
00000210: 080f 923d 614a 543d 9615 483e 7051 943d
00000220: 65ed f8bc c6f5 433d 442e 3d3d efad 90bd
00000230: 4a9e 6fbd 88e4 f13b fb12 54be 40a0 b8bc
00000240: acf2 2f3e 078c 3dbd a598 9b3d 2581 17bd
00000250: 3736 113d 91c7 00be 9522 ec3c 4c55 9b3c
00000260: 1964 993d b28c 9f3c 9c53 d8bc f773 143d
00000270: 4cc3 a0bc f653 29bd a831 d6bd c6af f23d
00000280: 73ae b4bc d684 0d3d 99b6 9e3b d7ab 5e3c
00000290: d945 9d3d 5fde c6bd 2c1c 4ebe 8618 1dbc
000002a0: 8ed7 353e 219c 393c d4eb 943c adb4 9fbd
000002b0: 915c b53d 42b5 e83c da67 233c 0293 983d
000002c0: 7214 943d a5e1 2cbc c7a2 a73d fcf0 1bbd
000002d0: e201 983d 8136 0ebe 49cf 283b 6b55 fdbb
000002e0: daf7 a1bc eafd ebbd 055a aabd 1520 bebd
000002f0: 8842 883b 5731 6ebe 6572 f9bc b62b 253d
00000300: 38e6 823c 348c b6bc b589 e1bb 1b2e c63c
00000310: 8248 5e3c 194f 813c 887d 6e3c a60f a8bb
00000320: 041c 62bc 8523 993a fa27 893c 02c7 babc
00000330: 7e93 50bb 385a 0fbd 651c aa3c 55e4 8cbc
00000340: 35ee e33b b00f bcbb 9777 7b3c eadf 17bd
00000350: ac9d 6bbc f7a0 06ba c763 a8bc 6ee4 073d
00000360: bfd7 423c 0270 9b3c 67dd 1a3c a637 2cbc
00000370: e901 84bc 128e 11bd ba77 efbb cfbf 2d3c
00000380: 17a1 1a3c 6360 99bb 5c03 8e3c 6cf1 09bc
00000390: 21be d33c 5479 833b 6792 4e3d 1e0a 933c
000003a0: 54de 6db9 96f7 07bc fe73 28bc 2841 a53b
000003b0: df23 ac3c e01d 813a d77a 8c3c 143e 1c3a
000003c0: da22 d2bc 8cf2 943b 4400 ad3c 9701 c83b
000003d0: dcea fcbb 6f5f e13b ca4e d0bb 9c39 763c
000003e0: a2d0 243c 2499 af3b e80f c6bc 570d 3bbc
000003f0: a4f6 6e3c 627e b6bc fd27 5f3c a178 cf3c

transformer.layers.0.self_attn.out_proj.bias f4 [64]
-0.5054534 -1.2954149 0.20612402 0.0934356 -0.9828963 1.4155629 -1.6355942 0.71392
-1.3691295 0.15186168 -1.1291963 -1.5406742 0.031806707 -1.4231588 -0.6133324 1.7906964
1.3452637 -1.9308954 0.7783265 0.7977276 0.64973503 -0.49259853 0.09422871 -1.1425955
-0.23983736 -1.0901664 1.2513942 -0.935674 0.9506169 -1.0027841 1.2103838 1.7485799
1.291008 1.4384723 1.4962199 1.2016308 1.0962467 -1.5516958 -1.3894091 -1.4309989
-1.6163688 0.97946244 1.5049766 1.3734701 -0.8680997 0.6009572 1.194882 -1.4671988
-0.9197912 0.030387336 -0.16074654 -1.1085818 -1.2742674 0.23496692 -0.88979566 1.4847366
0.42075145 0.36955783 1.3780286 -0.9590675 0.55409086 1.1802348 -2.0780792 0.4424124
00000000: 6565 01bf 28d0 a5bf 2d12 533e 2a5b bf3d
00000010: 189f 7bbf 2a31 b53f 275b d1bf 76c3 363f
00000020: a33f afbf a181 1b3e 8189 90bf d034 c5bf
00000030: c047 023d 112a b6bf 5a03 1dbf 8a35 e53f
00000040: 9a31 ac3f 9527 f7bf 6840 473f e037 4c3f
00000050: 0955 263f e035 fcbe fbfa c03d 9240 92bf
00000060: ed97 75be 938a 8bbf af2d a03f 5588 6fbf
00000070: a15b 733f 3b5b 80bf dbed 9a3f 77d1 df3f
00000080: c03f a53f dc1f b83f 2284 bf3f 0acf 993f
00000090: d051 8c3f f89d c6bf 28d8 b1bf f92a b7bf
000000a0: 2ce5 cebf 0dbe 7a3f 13a3 c03f decd af3f
000000b0: c83b 5ebf 55d8 193f e5f1 983f 2ccd bbbf
000000c0: 7077 6bbf ddee f83c be9a 24be 02e6 8dbf
000000d0: 321b a3bf 2b9b 703e a6c9 63bf d90b be3f
000000e0: bc6c d73e af36 bd3e 3e63 b03f 7385 75bf
000000f0: e6d8 0d3f ef11 973f 40ff 04c0 e183 e23e

transformer.layers.0.linear1.weight f4 [128, 64]
0.015065379 0.38493577 0.035785086 0.41080728 0.041898873 -0.12193587 -0.008851878 0.2693131
0.026843635 -0.09278357 -0.14987504 -0.1257776 0.15308994 -0.24623846 0.06704859 -0.064215474
-0.049327627 -0.20223065 -0.06457792 -0.17866208 -0.13468005 0.090460345 0.35200688 -0.046996605
0.063819036 -0.1471191 0.11579039 -0.0045622364 0.047495503 -0.0034698232 0.16214897 -0.08148793
-0.013334576 0.052791536 0.19110642 -0.17290416 0.031764705 -0.12402697 -0.11212637 0.012081857
-0.3224686 0.07064811 0.0023808512 0.015753102 0.22365434 -0.0366858 -0.05771915 -0.13402699
0.00362278 0.41851652 0.10229958 -0.018980796 -0.16788036 -0.20380163 -0.077574626 -0.05791196
-0.012901061 -0.27282816 -0.004887172 0.06488771 0.23613527 0.045722175 0.02653276 -0.037898447
0.07373768 0.02516577 0.11085808 0.52736187 0.063000746 -0.02181608 -0.06998004 0.18987404
-0.2312809 0.30172423 -0.13131775 -0.21849039 -0.107859485 -0.06825262 -0.07630386 0.2845636
0.15370423 -0.2835504 -0.09820709 -0.3066776 -0.46316656 0.22781008 0.02392638 0.071746826
0.13943276 -0.36451185 0.023376243 0.012672649 0.2283561 0.03132452 0.2849422 0.13502882
0.26517797 0.27075097 0.09364377 0.007385101 0.01975248 -0.24004728 -0.25864205 0.04047851
-0.33042556 -0.17415202 0.3427419 0.06399997 0.06965115 0.013883011 0.09486627 -0.29550472
-0.30510634 0.12328544 -0.36294478 -0.053503137 -0.06865094 -0.018789088 0.0044254474 0.1410017
-0.06783939 0.06329321 0.058072492 0.14167686 -0.05709369 0.08033861 -0.19327815 -0.46319956
0.23130034 0.2959622 -0.029718019 -0.0038504035 0.08761561 -0.2753389 0.47863382 -0.108612485
0.12970975 -0.28718978 0.114344224 0.34445313 0.13084584 0.5173152 -0.097096466 -0.1548025
-0.1436027 0.23913047 0.028343966 -0.25004083 -0.028221508 0.0692498 -0.27874446 0.08122793
0.43240267 0.48105025 -0.17924775 0.22948252 -0.15658064 -0.051264606 -0.5755869 -0.3751259
-0.18773629 -0.17438771 -0.5779945 -0.23052834 -0.32138097 0.23603475 0.33248258 0.06919108
0.44744372 -0.32461306 -0.22874933 -0.1753879 0.33287507 -0.04615654 -0.20524088 0.42091793
0.23109536 -0.052780155 -0.00504453 0.15759322 0.46628258 -0.09532236 0.23385838 -0.3050873
-0.2987308 -0.033402123 -0.19121115 -0.19761992 -0.15008488 -0.38398257 0.31448513 -0.06473993
0.030420486 0.21978019 0.10614192 0.07931252 0.028987193 0.040284354 0.039463647 0.0062646256
-0.11116246 0.11543902 0.049902473 -0.020772055 0.10105768 -0.030942552 -0.081284896 -0.035134338
0.016773038 0.109236725 0.0605695 -0.09717881 -0.0064086067 0.0029855168 0.01675261 0.0680144
0.11436141 -0.19783236 -0.09642767 -0.075772956 0.104273416 -0.045689844 -0.037517272 -0.078947715
0.04396977 0.046914972 -0.046584707 -0.06799212 -0.06610633 0.14588791 0.083848774 0.13627753
-0.09029498 0.026353482 0.20543657 -0.11134648 0.11149662 -0.17809393 -0.13732341 -0.023589058
-0.11208892 -0.066199586 -0.04627973 0.020611195 0.11591195 0.0004578979 0.1583611 0.019090272
-0.1590833 -0.065629326 0.017960887 0.060376797 -0.12578124 -0.09538685 0.20406334 0.04179952
00000000: c8d4 763c 4d16 c53e 6293 123d 5555 d23e
00000010: 279e 2b3d 83b9 f9bd 7807 11bc 68e3 893e
00000020: 2fe7 db3c 5005 bebd d878 19be d8cb 00be
00000030: 9cc3 1c3e ef25 7cbe c550 893d 6783 83bd
00000040: c40b 4abd 8d15 4fbe 6e41 84bd 31f3 36be
00000050: 91e9 09be 4643 b93d 3f3a b43e 837f 40bd
00000060: 8eb3 823d 64a6 16be 8323 ed3d d07e 95bb
00000070: a58a 423d f965 63bb 610a 263e 25e3 a6bd
00000080: 4479 5abc f03b 583d 67b1 433e ca0d 31be
00000090: b51b 023d da01 febd 83a2 e5bd fbf2 453c
000000a0: 9b1a a5be f5af 903d 0e08 1c3b a60c 813c
000000b0: a505 653e d943 16bd ea6a 6cbd 5f3e 09be
000000c0: 2a6c 6d3b cc47 d63e 7182 d13d 9d7d 9bbc
000000d0: d4e8 2bbe 60b1 50be 72df 9ebd 1735 6dbd
000000e0: f95e 53bc 22b0 8bbe 9224 a0bb d9e3 843d
000000f0: 72cd 713e 2d47 3b3d 3b5b d93c 673b 1bbd
00000100: c803 973d 7228 ce3c 9009 e33d 3001 073f
00000110: 8906 813d a3b7 b2bc b251 8fbd 576e 423e
00000120: e6d4 6cbe 997b 9a3e 2978 06be f2bb 5fbe
00000130: 6fe5 dcbd 08c8 8bbd 3345 9cbd 52b2 913e
00000140: a464 1d3e 852d 91be cc20 c9bd d904 9dbe
00000150: 2b24 edbe 0c47 693e 4101 c43c 00f0 923d
00000160: 76c7 0e3e 4ca1 babe 897f bf3c f1a0 4f3c
00000170: 2ed6 693e 244e 003d f2e3 913e ff44 0a3e
00000180: 68c5 873e df9f 8a3e 4ec8 bf3d b8fe f13b
00000190: f4cf a13c f4ce 75be bb6c 84be cbcc 253d
000001a0: 8a2d a9be e854 32be de7b af3e 6b12 833d
000001b0: 43a5 8e3d 9275 633c 3f49 c23d 654c 97be
000001c0: e636 9cbe 147d fc3d e6d3 b9be 1b26 5bbd
000001d0: dd98 8cbd 93eb 99bc 5803 913b c062 103e
000001e0: 61ef 8abd df9f 813d 6cdd 6d3d bd13 113e
000001f0: 13db 69bd 9288 a43d b5ea 45be 7e28 edbe
00000200: ffd9 6c3e 5c88 973e 3473 f3bc 0d57 7cbb
00000210: d06f b33d 38f9 8cbe 7e0f f53e 3970 debd
00000220: a2d2 043e 8a0a 93be 4e2d ea3d 295c b03e
00000230: 74fc 053e c56e 043f 83da c6bd 8c84 1ebe
00000240: 960c 13be 9ede 743e 9b31 e83c 5a05 80be
00000250: cb30 e7bc d7d2 8d3d 98b7 8ebe d45a a63d
00000260: e263 dd3e 384c f63e b98c 37be 77fd 6a3e
00000270: ad56 20be d6fa 51bd aa59 13bf 8110 c0be
00000280: f13d 40be b192 32be 73f7 13bf 9f0f 6cbe
00000290: 0c8c a4be 18b3 713e 283b aa3e 0eb4 8d3d
000002a0: 5817 e53e af33 a6be 443d 6abe e398 33be
000002b0: 9a6e aa3e a40e 3dbd aa2a 52be 8e82 d73e
000002c0: 43a4 6c3e 0130 58bd 964c a5bb 1e60 213e
000002d0: 97bc ee3e 5f38 c3bd 9278 6f3e 6734 9cbe
000002e0: 3ef3 98be aad0 08bd dbcc 43be e05c 4abe
000002f0: daaf 19be 5d99 c4be 3204 a13e 5e96 84bd
00000300: 6234 f93c 0f0e 613e ef60 d93d 9a6e a23d
00000310: 8d76 ed3c 3501 253d a2a4 213d 7d47 cd3b
00000320: 25a9 e3bd 4b6b ec3d 8966 4c3d 282a aabc
00000330: 54f7 ce3d 3c7b fdbc b278 a6bd 06e9 0fbd
00000340: 9c67 893c 81b7 df3d b917 783d af05 c7bd
00000350: 4aff d1bb a9a8 433b c53c 893c 224b 8b3d
00000360: 5136 ea3d 9194 4abe df7b c5bd da2e 9bbd
00000370: 4d8d d53d 4625 3bbd b6ab 19bd 57af a1bd
00000380: a519 343d ea29 403d 9bcf 3ebd 743f 8bbd
00000390: c162 87bd a463 153e e8b8 ab3d 568c 0b3e
000003a0: 93ec b8bd 42e3 d73c f75d 523e a009 e4bd
000003b0: 5758 e43d 415e 36be 829e 0cbe d73d c1bc
000003c0: e08e e5bd a693 87bd d08f 3dbd cfd8 a83c
000003d0: 3f63 ed3d 0412 f039 6a29 223e 3463 9c3c
000003e0: bce6 22be ab68 86bd b622 933c a94d 773d
000003f0: cccc 00be 2e5a c3bd fbf5 503e f935 2b3d

transformer.layers.0.linear1.bias f4 [128]
-0.30750123 -0.16856486 -0.14243802 -0.12275918 -0.24280508 -0.10585418 -0.18733874 -0.120978676
-0.07548532 -0.2914086 -0.15670262 -0.23760363 -0.3062503 -0.31871623 -0.31359908 -0.2334033
-0.44844964 -0.38681892 0.0666112 -0.2234334 -0.1379818 -0.26443985 -0.08958437 -0.30231997
-0.31671327 -0.14560069 -0.33074948 -0.30938816 -0.17460935 -0.13431229 -0.13017802 -0.16972774
-0.12898315 -0.15173759 -0.40823326 -0.59802014 -0.3702567 -0.16367617 -0.22565986 -0.24653663
-0.14486408 -0.0809959 -0.29369584 -0.104137406 -0.030164978 -0.19889057 -0.11582891 -0.39001974
-0.12892626 -0.14199524 -0.07667711 -0.190241 -0.3506998 -0.307544 -0.3443935 -0.12870748
-0.09665672 -0.46493125 -0.18097758 -0.032003615 -0.2107419 -0.46062583 -0.3241804 -0.18151088
-0.25986364 -0.07444415 -0.37301946 -0.3128899 -0.12758729 -0.19394998 -0.025403993 -0.11810113
-0.17100546 -0.4237845 -0.19435707 -0.1810407 -0.3220637 -0.27252617 -0.26398206 -0.34858522
-0.16434605 -0.120570794 -0.24891551 -0.34537822 -0.26854137 -0.10524792 -0.17381074 -0.19061607
-0.12755767 -0.15644069 -0.18395881 -0.12921983 -0.458018 -0.39754164 -0.0010400162 -0.22129358
-0.1594093 -0.052938376 -0.0063443533 -0.09382845 -0.41381413 -0.42465106 -0.19610712 -0.3340896
-0.1641203 0.07333641 -0.24058862 -0.13014805 -0.019047301 -0.3407231 -0.091073565 -0.16859888
-0.12566508 -0.067240655 -0.11444233 -0.23514938 0.14339161 -0.22800241 -0.12999244 0.039468586
-0.25449786 -0.072135545 -0.26037467 -0.18978906 -0.387198 -0.16712713 -0.20043221 -0.18557234
00000000: cd70 9dbe 449c 2cbe 46db 11be 2a69 fbbd
00000010: e5a1 78be 14ca d8bd bad5 3fbe abc3 f7bd
00000020: 0c98 9abd 8233 95be a776 20be 5e4e 73be
00000030: d7cc 9cbe c62e a3be 0f90 a0be 4601 6fbe
00000040: 319b e5be 210d c6be 746b 883d bacb 64be
00000050: 1a4b 0dbe a964 87be 0378 b7bd afc9 9abe
00000060: 3e28 a2be 5918 15be ff57 a9be 2068 9ebe
00000070: cbcc 32be 2989 09be 634d 05be 1ccd 2dbe
00000080: 2914 04be 1961 1bbe f303 d1be d917 19bf
00000090: 4992 bdbe ba9a 27be 6113 67be 1974 7cbe
000000a0: 4057 14be 2ee1 a5bd 4d5f 96be fe45 d5bd
000000b0: 8b1c f7bc f8a9 4bbe b537 edbd abb0 c7be
000000c0: 3f05 04be 3367 11be e308 9dbd 89ce 42be
000000d0: ed8e b3be 6876 9dbe 5854 b0be e5cb 03be
000000e0: f5f3 c5bd 780b eebe 3052 39be 3916 03bd
000000f0: bacc 57be 26d7 ebbe f9fa a5be fddd 39be
00000100: d90c 85be 2d76 98bd 68fc bebe 1b33 a0be
00000110: 3ea6 02be d39a 46be 091c d0bc 01df f1bd
00000120: 0e1c 2fbe 48fa d8be 8a05 47be bc62 39be
00000130: 89e5 a4be 8d88 8bbe a828 87be c379 b2be
00000140: 554a 28be d2ed f6bd b5e3 7ebe 6ad5 b0be
00000150: 417e 89be 398c d7bd 71fb 31be dc30 43be
00000160: 7a9e 02be fd31 20be b35f 3cbe 3452 04be
00000170: 5681 eabe 948a cbbe 2751 88ba c99a 62be
00000180: 313c 23be e9d5 58bd 4be4 cfbb 2129 c0bd
00000190: 72df d3be dd6b d9be 4ed0 48be cb0d abbe
000001a0: 270f 28be 6631 963d dd5c 76be 8845 05be
000001b0: 1609 9cbc 4273 aebe c784 babd 2fa5 2cbe
000001c0: 59ae 00be 78b5 89bd be60 eabd 00cb 70be
000001d0: 40d5 123e 7779 69be bd1c 05be d0a9 213d
000001e0: 8b4d 82be cdbb 93bd d44f 85be 1058 42be
000001f0: d13e c6be 6023 2bbe 1a3e 4dbe ad06 3ebe

transformer.layers.0.linear2.weight f4 [64, 128]
-0.037217446 0.10156685 -0.062072974 0.039040755 0.025509976 0.2918387 0.060057096 0.10364284
-0.22339012 -0.15482861 0.101126574 0.13636285 -0.018444313 -0.14229974 -0.13377786 0.16417465
-0.0996314 0.08175363 -0.2124141 0.43351185 -0.11204525 -0.15652414 0.40497062 0.19960709
0.0780478 0.09530613 -0.38842446 0.41466188 0.4070181 0.11880315 -0.015696248 -0.08507489
-0.23252822 0.012702995 -0.01800686 -0.035457645 0.1015416 -0.19328259 -0.22069013 0.15050544
0.3602547 0.10852237 0.10879291 -0.09079546 0.65188754 0.21734548 -0.09566788 -0.10793753
-0.0046713427 -0.103067696 -0.01649354 0.7244373 -0.1906789 -0.0028765954 -0.00051718106 0.09241082
-0.18353704 0.67492765 -0.04126711 0.09740077 0.5709883 -0.22838801 -0.42947775 -0.011196472
0.40682173 -0.026469264 -0.3581734 0.68465406 0.05405663 0.2440634 0.15804362 0.17623352
-0.071696006 -0.1661566 -0.03126246 -0.09710052 -0.2096446 0.19182056 -0.03942789 0.08630293
0.201438 -0.2584118 0.12332268 0.42076224 -0.1049749 -0.06969918 0.29103005 0.54277134
-0.10114541 -0.10680996 -0.09836355 -0.0021818092 -0.16924937 0.1285452 -0.020238904 -0.18182795
-0.20270567 0.5321714 -0.10521902 0.06412003 -0.18770304 0.7309664 0.15700825 -0.16043536
-0.15870884 0.058851134 -0.059406225 -0.19102858 -0.05153542 -0.3284671 0.10700645 0.12882213
0.7218425 -0.06139599 0.7801856 -0.34293917 0.026331736 0.08391551 -0.030340912 -0.020361854
0.76816744 -0.12703708 0.033145927 -0.19645369 -0.15697476 -0.010824561 -0.035719242 0.05210496
-0.33227536 0.040591862 0.075607195 0.012670348 -0.19424407 0.13953513 0.14727212 -0.050684437
0.027159683 0.24878378 -0.1341916 0.33457604 0.24080607 -0.2281964 0.42313093 -0.026735049
-0.20351508 0.13342948 0.06394562 -0.09094922 -0.6173062 -0.10642052 -0.121472485 0.08865851
-0.42819366 0.22831105 0.43309978 -0.43366694 -0.10213088 0.8227146 -0.087224275 -0.08550146
-0.028808432 -0.115490675 0.090834536 -0.6319956 -0.26445648 -0.09154281 -0.030063346 -0.3965616
-0.022301618 -0.15812339 -0.03552572 0.010034279 -0.20291005 0.048566896 -0.0216463 0.1050129
-0.046567313 0.36139143 0.014907189 -0.061625082 0.36095142 -0.1972536 0.28197104 -0.08641356
-0.04248881 -1.0345261 0.02422594 0.4898707 -0.34956685 -0.37178415 -0.093169145 0.093099155
-0.049345337 -0.21664566 0.046204325 -0.9131408 -0.18551366 -0.024695212 -0.17038362 0.3138018
-0.10557442 -0.5296198 0.8221585 0.43327942 -0.29702482 -0.7319902 0.5632738 0.016883103
-0.15492748 0.118631534 -0.36738628 -0.00041214432 -0.15146661 0.017771345 -0.25383723 -0.005814539
-0.13033865 -0.11459762 -0.02066801 -0.019819144 0.0106188245 -0.107925616 0.31685424 0.263443
-0.28429943 0.012882916 0.3640073 -0.008686182 0.436372 -0.79669505 0.18724705 -0.3604332
0.42633775 -0.03753221 0.22094156 -0.36577675 -0.26724806 -0.25625306 0.0148887895 -0.12848671
-0.13565338 -0.21308629 -0.08714105 0.18717933 0.030925274 0.28422448 -0.19704778 -0.014946933
0.08837177 0.12234171 -0.18099077 -0.040708546 -0.40931076 0.022079425 0.19348195 -0.007860541
00000000: 5271 18bd 4802 d03d 3b40 7ebd 33e9 1f3d
00000010: 4cfa d03c e26b 953e 6efe 753d b342 d43d
00000020: 61c0 64be 648b 1ebe 731b cf3d b4a2 0b3e
00000030: 8718 97bc 06b7 11be 10fd 08be 661d 283e
00000040: 8c0b ccbd 726e a73d 1583 59be 44f5 dd3e
00000050: fb77 e5bd dd47 20be 4f58 cf3e cd65 4c3e
00000060: 86d7 9f3d dc2f c33d 92df c6be 904e d43e
00000070: ad64 d03e 114f f33d 6b95 80bc be3b aebd
00000080: e11b 6ebe 3920 503c 1f83 93bc 093c 11bd
00000090: 0bf5 cf3d dfeb 45be 98fc 61be 191e 1a3e
000000a0: 4e73 b83e fa40 de3d d1ce de3d f8f2 b9bd
000000b0: 1ae2 263f d08f 5e3e 85ed c3bd 5a0e ddbd
000000c0: 1012 99bb 2815 d3bd 761d 87bc b974 393f
000000d0: 5441 43be 4385 3cbb 6f93 07ba e241 bd3d
000000e0: 22f1 3bbe 0fc8 2c3f b307 29bd 0e7a c73d
000000f0: 4a2c 123f 8cde 69be 82e4 dbbe 6871 37bc
00000100: f04a d03e 12d6 d8bc 8162 b7be 7d45 2f3f
00000110: 7c6a 5d3d c2eb 793e 30d6 213e 8f76 343e
00000120: 5bd5 92bd f524 2abe 110d 00bd a3dc c6bd
00000130: 13ad 56be 9c6c 443e 247f 21bd 97bf b03d
00000140: c345 4e3e 8d4e 84be 9a90 fc3d 266e d73e
00000150: 15fd d6bd 72be 8ebd e401 953e 10f3 0a3f
00000160: 5325 cfbd 2ebf dabd d472 c9bd affc 0ebb
00000170: b54f 2dbe 5aa1 033e 0fcc a5bc 1b31 3abe
00000180: 1392 4fbe 633c 083f 127d d7bd 5d51 833d
00000190: 3a35 40be 9d20 3b3f c5c6 203e 2b49 24be
000001a0: 9284 22be e30d 713d f153 73bd ff9c 43be
000001b0: ce16 53bd d72c a8be 3326 db3d f3e9 033e
000001c0: acca 383f 5d7a 7bbd 3eba 473f b995 afbe
000001d0: a7b5 d73c e5db ab3d 818d f8bc e7cd a6bc
000001e0: 9fa6 443f 0216 02be 06c4 073d 282b 49be
000001f0: febd 20be 8059 31bc 574e 12bd 036c 553d
00000200: ff1f aabe a743 263d f2d7 9a3d 4b97 4f3c
00000210: ebe7 46be 4ce2 0e3e 81ce 163e 7c9a 4fbd
00000220: fc7d de3c 2dc1 7e3e 8669 09be 8d4d ab3e
00000230: de95 763e 51ac 69be 9ea4 d83e 7603 dbbc
00000240: 4266 50be bda1 083e ecf5 823d 9643 babd
00000250: c707 1ebf 00f3 d9bd 91c6 f8bd 9892 b53d
00000260: 333c dbbe 5fca 693e 41bf dd3e 9809 debe
00000270: ff29 d1bd 6d9d 523f a4a2 b2bd 641b afbd
00000280: a9ff ebbc 6086 ecbd 7507 ba3d 77ca 21bf
00000290: d766 87be cc7a bbbd 6847 f6bc 1f0a cbbe
000002a0: e2b1 b6bc 19eb 21be 6b83 11bd d166 243c
000002b0: a7c7 4fbe 15ee 463d 9553 b1bc 0111 d73d
000002c0: 5ebd 3ebd 4c08 b93e 483d 743c 956a 7cbd
000002d0: a0ce b83e d9fc 49be 825e 903e 98f9 b0bd
000002e0: bf08 2ebd 5a6b 84bf 7b75 c63c 55d0 fa3e
000002f0: 6dfa b2be 7e5a bebe 77cf bebd c5aa be3d
00000300: 561e 4abd 5cd8 5dbe bf40 3d3d 98c3 69bf
00000310: 4bf7 3dbe 9d4d cabc 0b79 2ebe a1aa a03e
00000320: 6737 d8bd 2a95 07bf fb78 523f cdd6 dd3e
00000330: a313 98be b663 3bbf b632 103f 6f4e 8a3c
00000340: 4fa5 1ebe 17f5 f23d 0e1a bcbe 1315 d8b9
00000350: 101a 1bbe 3695 913c f4f6 81be e387 bebb
00000360: 7f77 05be 28b2 eabd f54f a9bc c25b a2bc
00000370: 94fa 2d3c 1b08 ddbd b83a a23e 00e2 863e
00000380: b28f 91be de12 533c 2a5f ba3e 7d50 0ebc
00000390: 276c df3e 35f4 4bbf b1bd 3f3e b38a b8be
000003a0: f148 da3e 60bb 19bd 813e 623e 1747 bbbe
000003b0: bdd4 88be 9a33 83be 1cf0 733c 0592 03be
000003c0: b8e8 0abe 4b33 5abe 0277 b2bd f0ab 3f3e
000003d0: 0057 fd3c df85 913e e5c6 49be fbe3 74bc
000003e0: 42fc b43d 4a8e fa3d a555 39be 01be 26bd
000003f0: 2e91 d1be e9df b43c 2220 463e 80c9 00bc

transformer.layers.0.linear2.bias f4 [64]
-0.009086316 0.00034175868 -0.07954932 0.049737856 -0.013999865 0.08875254 -0.05057518 0.09596977
-0.0132086305 0.16173065 -0.14158921 0.013893493 0.10467961 0.115835644 0.046227895 0.09583921
-0.048924975 0.12006075 0.054573197 -0.14905018 0.25790262 0.10022127 0.005768926 -0.040235393
0.039902166 -0.120989874 -0.0354088 -0.0029524295 0.17228249 0.011617097 -0.017250191 -0.11105543
-0.0077027273 -0.054654125 -0.00020143294 0.044396482 -0.083161935 0.055783104 -0.17251134 -0.03246126
0.103106506 -0.060043726 -0.12439532 0.09891882 -0.14641374 -0.0004935569 -0.097675644 0.024280136
-0.086641565 0.19282728 0.06724935 -0.107865766 0.081505805 -0.007831988 -0.0286254 0.018260347
-0.030004155 -0.078505374 -0.008358974 -0.16583937 -0.14801387 -0.1336081 0.021593641 -0.04455966
00000000: c6de 14bc 132e b339 c1ea a2bd ecb9 4b3d
00000010: b15f 65bc e4c3 b53d ec27 4fbd cc8b c43d
00000020: 0369 58bc b89c 253e c3fc 10be 89a1 633c
00000030: 4362 d63d 3d3b ed3d 7659 3d3d 5947 c43d
00000040: 8e65 48bd 69e2 f53d 2588 5f3d 9ca0 18be
00000050: d00b 843e cf40 cd3d 4209 bd3b decd 24bd
00000060: 7470 233d 8ac9 f7bd d108 11bd 8c7d 41bb
00000070: d26a 303e a355 3e3c 4650 8dbc 0771 e3bd
00000080: 2967 fcbb 01dd 5fbd be37 53b9 16d9 353d
00000090: ce50 aabd d37c 643d d0a6 30be 19f6 04bd
000000a0: 8129 d33d 69f0 75bd f9c2 febd f395 ca3d
000000b0: 7ced 15be 0b62 01ba 2b0a c8bd 23e7 c63c
000000c0: 2271 b1bd 8474 453e 07ba 893d bae8 dcbd
000000d0: 84ec a63d bd51 00bc d17f eabc b996 953c
000000e0: 46cb f5bc 6dc7 a0bd 14f4 08bc ccd1 29be
000000f0: f390 17be 90d0 08be 26e5 b03c 3184 36bd

transformer.layers.0.norm1.weight f4 [64]
0.441733 0.5051643 0.27962974 1.4697326 1.3987466 0.6871745 0.9512336 1.3644427
0.7230853 0.79143864 0.5800337 1.4829811 1.3290051 0.86563903 1.0203525 0.78626627
1.2893169 0.42642137 1.0739405 0.65823436 0.18334566 1.2329345 1.8125902 0.8959417
1.3652914 0.6091628 1.0392528 0.7287447 0.65080756 0.6513268 1.6611096 0.87834233
0.51605165 0.98853666 1.203813 0.48014113 1.3238178 0.7769994 0.7601888 0.28006014
1.1966411 1.2183096 1.1469446 0.5429478 0.2565359 0.6460505 0.023328723 1.299199
0.6060223 0.66514444 0.86224383 1.5368737 1.1129013 0.049220104 1.3953938 1.2432241
1.3335966 0.7422176 0.5092361 0.16394924 0.20897478 0.90264434 1.0926685 0.74427277
00000000: d42a e23e 7352 013f a12b 8f3e 3320 bc3f
00000010: 210a b33f abea 2f3f 0c84 733f 0fa6 ae3f
00000020: 1e1c 393f b99b 4a3f 177d 143f 53d2 bd3f
00000030: d71c aa3f 859a 5d3f e99a 823f bf48 493f
00000040: 5608 a53f e753 da3e e276 893f 0c82 283f
00000050: f7be 3b3e ccd0 9d3f f502 e83f 6f5c 653f
00000060: dec1 ae3f 18f2 1b3f 3c06 853f 038f 3a3f
00000070: 539b 263f 5abd 263f 3d9f d43f 0bdb 603f
00000080: f61b 043f bd10 7d3f 8b16 9a3f 0fd5 f53e
00000090: dd72 a93f 6fe9 463f bc9b 423f 0b64 8f3e
000000a0: 892b 993f 92f1 9b3f 15cf 923f a1fe 0a3f
000000b0: ac58 833e 9163 253f e11b bf3c 274c a63f
000000c0: 4724 1b3f e846 2a3f 03bc 5c3f 47b8 c43f
000000d0: 8d73 8e3f 059b 493d 449c b23f f821 9f3f
000000e0: 4bb3 aa3f f901 3e3f 4c5d 023f 4fe2 273e
000000f0: 7cfd 553e b313 673f 90dc 8b3f a988 3e3f

transformer.layers.0.norm1.bias f4 [64]
-0.021876583 -0.18598378 -0.08437595 -0.11372194 -0.0889368 0.072223425 -0.08492802 0.050067313
0.15842555 -0.048856884 0.07270983 -0.07885195 -0.11550911 -0.05994227 0.055690933 -0.08140637
0.17562707 0.06701813 -0.07162691 0.16528536 0.030944431 -0.2484091 0.01167392 -0.03522565
0.0675431 0.06718664 0.030881763 -0.015776288 -0.0067802574 -0.13515007 0.05354862 0.01793287
-0.099087305 0.09180373 -0.034529217 0.01706944 0.03857244 0.15188408 0.016831793 -0.012859376
-0.015446653 0.034812834 -0.05708855 -0.010687898 -0.1862066 0.15491821 -0.0016801249 -0.013218175
0.017298149 -0.22277619 -0.011444924 0.014412141 -0.010370411 0.01243963 -0.044679087 -0.019079972
-0.19620454 0.13289206 -0.10134562 -0.03244736 -0.05457385 0.08862779 -0.06332414 0.1754725
00000000: 8536 b3bc 8872 3ebe 4ccd acbd 0ce7 e8bd
00000010: 7f24 b6bd e0e9 933d beee adbd 6213 4d3d
00000020: 4f3a 223e 281e 48bd e4e8 943d 227d a1bd
00000030: 0a90 ecbd 0786 75bd 2d1c 643d 62b8 a6bd
00000040: 95d7 333e cd40 893d 21b1 92bd 9140 293e
00000050: 2d7f fd3c f55e 7ebe f843 3f3c c548 10bd
00000060: 0954 8a3d 2699 893d c0fb fc3c 463d 81bc
00000070: ec2c debb c864 0abe cc55 5b3d f4e7 923c
00000080: 49ee cabd 9803 bc3d 826e 0dbd 36d5 8b3c
00000090: 23fe 1d3d 8087 1b3e d4e2 893c 22b0 52bc
000000a0: f513 7dbc e797 0e3d afd5 69bd 4b1c 2fbc
000000b0: f1ac 3ebe e1a2 1e3e a337 dcba 0b91 58bc
000000c0: d9b4 8d3c 711f 64be 7e83 3bbc e720 6c3c
000000d0: a8e8 29bc 97cf 4b3c 6b01 37bd 9a4d 9cbc
000000e0: d8e9 48be db14 083e 4b8e cfbd 86e7 04bd
000000f0: d488 5fbd 7d82 b53d 16b0 81bd 10af 333e

transformer.layers.0.norm2.weight f4 [64]
0.9449983 0.8891282 1.0019699 0.9885346 1.46053 1.1359961 0.83453405 1.2071266
1.193093 1.223105 0.92466646 1.4011885 1.0654213 0.97160226 1.2624735 1.1249983
1.1198297 1.0290772 1.2694012 0.9625594 0.7243151 1.0571916 1.3648373 0.8908679
1.0160763 0.95874834 0.9586086 1.1082499 0.999498 1.1759049 1.3353682 0.8371575
1.101859 1.3794906 1.1756821 0.97751284 1.1561223 1.172163 1.1181823 0.86663866
1.1110857 1.2595321 1.2714196 0.9782679 0.9344711 1.1876745 0.86805487 1.1918557
1.2151546 0.8617499 1.2033795 1.5080471 1.1045405 1.0675377 1.3441509 1.3190601
0.91347516 0.98223054 1.0710145 0.9689487 0.94855255 0.94631463 1.0650227 0.85880697
00000000: 69eb 713f e89d 633f 8d40 803f 9b10 7d3f
00000010: a6f2 ba3f 5268 913f 06a4 553f 2083 9a3f
00000020: 45b7 983f b48e 9c3f f1b6 6c3f 255a b33f
00000030: ba5f 883f edba 783f bb98 a13f f2ff 8f3f
00000040: 9456 8f3f cdb8 833f bd7b a23f 4b6a 763f
00000050: b76c 393f 0e52 873f fdb2 ae3f eb0f 643f
00000060: ca0e 823f 8870 753f 6067 753f 22db 8d3f
00000070: 1adf 7f3f 0d84 963f 58ed aa3f f44f 563f
00000080: b709 8d3f 2693 b03f c07c 963f 483e 7a3f
00000090: d1fb 933f 7009 963f 9920 8f3f 08dc 5d3f
000000a0: 0e38 8e3f 5938 a13f e1bd a23f c46f 7a3f
000000b0: 7f39 6f3f b805 983f d838 5e3f ba8e 983f
000000c0: 308a 9b3f a49b 5c3f 5708 9a3f b007 c13f
000000d0: 9561 8d3f 13a5 883f 230d ac3f f6d6 a83f
000000e0: 82d9 693f 7673 7b3f 0117 893f 060d 783f
000000f0: 57d4 723f ad41 723f aa52 883f c6da 5b3f

transformer.layers.0.norm2.bias f4 [64]
0.057045404 0.02671524 0.03457414 0.19374098 0.0030927071 -0.1897094 0.064515136 0.22392115
-0.100203775 0.014070497 -0.03176256 -0.09426577 0.15964131 0.13251056 0.090402365 0.11338034
-0.11012465 0.045823477 -0.18600139 0.065929316 -0.10660116 0.092151195 0.1446247 0.111122146
0.21760902 -0.10301184 -0.08661802 0.09780408 -0.12153916 0.015337224 -0.06503481 -0.14251739
-0.1030491 0.112243585 -0.21253034 -0.109062985 -0.2775847 -0.0777592 0.017728984 0.13635845
-0.06228732 -0.15851527 -0.021202764 -0.110456206 0.07679944 -0.12576328 -0.04695307 0.03805132
-0.07649932 0.29420364 -0.23969741 0.049170606 0.08170959 -0.09428677 0.1391889 -0.17449656
-0.49621624 -0.16739157 -0.102586284 -0.04626899 0.018107139 -0.07767911 0.034248702 -0.18437581
00000000: 71a8 693d ebd9 da3c 9d9d 0d3d 0964 463e
00000010: 04af 4a3b 2e43 42be 8320 843d 964b 653e
00000020: a337 cdbd f187 663c 7519 02bd 690e c1bd
00000030: 0379 233e d9b0 073e e024 b93d f433 e83d
00000040: 0889 e1bd 66b1 3b3d 2677 3ebe f305 873d
00000050: b551 dabd c4b9 bc3d 7f18 143e 0294 e33d
00000060: e6d4 5e3e dff7 d2bd ca64 b1bd 814d c83d
00000070: 86e9 f8bd fb48 7b3c f830 85bd 14f0 11be
00000080: 680b d3bd f7df e53d 8ea1 59be 6a5c dfbd
00000090: 951f 8ebe 3740 9fbd 603c 913c 8da1 0b3e
000000a0: fd20 7fbd d451 22be 6bb1 adbc dd36 e2bd
000000b0: 0649 9d3d 17c8 00be dd51 40bd b3db 1b3d
000000c0: adab 9cbd dca1 963e 3d73 75be 1e67 493d
000000d0: 5c57 a73d 6c19 c1bd 8987 0e3e 3aaf 32be
000000e0: 0e10 febe b268 2bbe c218 d2bd 8d84 3dbd
000000f0: 6c55 943c 3a16 9fbd 5e48 0c3d 03cd 3cbe
